{"modelTopology":{"class_name":"Sequential","config":{"name":"sequential_1","layers":[{"class_name":"Embedding","config":{"input_dim":5000,"output_dim":64,"embeddings_initializer":{"class_name":"RandomUniform","config":{"minval":-0.05,"maxval":0.05,"seed":null}},"embeddings_regularizer":null,"activity_regularizer":null,"embeddings_constraint":null,"mask_zero":null,"input_length":20,"name":"embedding_Embedding1","trainable":true,"batch_input_shape":[null,20]}},{"class_name":"LSTM","config":{"units":64,"activation":"tanh","recurrent_activation":"hard_sigmoid","use_bias":true,"kernel_initializer":{"class_name":"VarianceScaling","config":{"scale":1,"mode":"fan_avg","distribution":"uniform","seed":null}},"recurrent_initializer":{"class_name":"VarianceScaling","config":{"scale":1,"mode":"fan_avg","distribution":"uniform","seed":null}},"bias_initializer":{"class_name":"Zeros","config":{}},"unit_forget_bias":null,"kernel_regularizer":null,"recurrent_regularizer":null,"bias_regularizer":null,"activity_regularizer":null,"kernel_constraint":null,"recurrent_constraint":null,"bias_constraint":null,"dropout":0,"recurrent_dropout":0,"implementation":null,"return_sequences":false,"return_state":false,"go_backwards":false,"stateful":false,"unroll":false,"name":"lstm_LSTM1","trainable":true}},{"class_name":"Dense","config":{"units":5000,"activation":"softmax","use_bias":true,"kernel_initializer":{"class_name":"VarianceScaling","config":{"scale":1,"mode":"fan_avg","distribution":"normal","seed":null}},"bias_initializer":{"class_name":"Zeros","config":{}},"kernel_regularizer":null,"bias_regularizer":null,"activity_regularizer":null,"kernel_constraint":null,"bias_constraint":null,"name":"dense_Dense1","trainable":true}}]},"keras_version":"tfjs-layers 2.0.0","backend":"tensor_flow.js"},"format":"layers-model","generatedBy":"TensorFlow.js tfjs-layers v2.0.0","convertedBy":null,"weightsManifest":[{"paths":["./trained-lm.weights.bin"],"weights":[{"name":"embedding_Embedding1/embeddings","shape":[5000,64],"dtype":"float32"},{"name":"lstm_LSTM1/kernel","shape":[64,256],"dtype":"float32"},{"name":"lstm_LSTM1/recurrent_kernel","shape":[64,256],"dtype":"float32"},{"name":"lstm_LSTM1/bias","shape":[256],"dtype":"float32"},{"name":"dense_Dense1/kernel","shape":[64,5000],"dtype":"float32"},{"name":"dense_Dense1/bias","shape":[5000],"dtype":"float32"}]}]}